multiple_road_sensors_1500epoch_1_0.005_sched_400_08_bn_no_reg_no_net_DevAngsDistVel_WA___64_4_1399.onnx (onnx, 62473 bytes, 9 tensors)

fc1.bias f4 [64]
00000000: c18a 43be becc 083c 5bd7 de3d fc6b bcbc
00000010: 401b fa3d e8b9 b4be 8e36 c9bd 070a 1d3c
00000020: b943 43be ddc4 08be 8be1 95bd d6e4 4b3d
00000030: 1eda f03b f86e 1fbe aa81 e7bd 4e58 ca3d
00000040: 3927 00be aa50 0a3e e89e 073e da7d bbbc
00000050: 575b b23d c7b4 2f3d d4e3 2cbd 97a2 e53d
00000060: b851 6e3d a2e1 90bd 4f6e da3d b5dd 0cbd
00000070: 8d4a 0b3e 65e1 8abd a75c 453e 2522 07bd
00000080: 3477 c43d b334 a0be 4050 a53d 3fd5 2c3e
00000090: 7df6 f4bd 846f b6bc 1977 113e 66c3 673d
000000a0: 2817 c6be 0af2 c73d 866c ccbc 354f 823d
000000b0: e923 693d 0821 36be 205a b93e a00a 8d3c
000000c0: e839 adbd 0830 1b3d 1336 333d be2d 293e
000000d0: 315c a53d ea25 14bf b155 303d 3691 1cbc
000000e0: cfba cfbb 711d 083e d6c5 3c3d 9d8c 41be
000000f0: 3834 793d 3e57 cc3d 4724 2abf 7b71 bc3d
-0.19095899 0.008349596 0.108809195 -0.02300071 0.12212229 -0.35298085 -0.098248586 0.00958491
-0.19068803 -0.13356347 -0.073184095 0.04977878 0.0073502203 -0.15569675 -0.11304028 0.09880124
-0.12514962 0.13507333 0.13244212 -0.02288716 0.08708828 0.042897012 -0.04220946 0.11212652
0.0581834 -0.07074286 0.10665571 -0.034391124 0.13602658 -0.06781272 0.19273625 -0.032991547
0.09593049 -0.31290206 0.08071947 0.16878222 -0.119610764 -0.022269972 0.14205588 0.05658283
-0.38689542 0.09762962 -0.024954092 0.06362764 0.056919012 -0.17786038 0.36201572 0.01721698
-0.0845831 0.037887603 0.04375274 0.16521356 0.08074225 -0.5787035 0.04305047 -0.009556105
-0.006339408 0.13292481 0.04608711 -0.18901296 0.060840815 0.099775776 -0.66461605 0.09201332

fc1.weight f4 [64, 43]
00000000: 9a6c 2dbd 3fae 08bd 4ec7 cbbd 99be c53d
00000010: 8924 0e3e d444 483e 80ce 163e b19b 133e
00000020: 4cd3 c9bc 5540 88bc bb58 983d 9dcc 43ba
00000030: 1ceb 51bd 0d54 15be 6abd 093e 5c5a 0ebe
00000040: 99ce ca3d 6345 0dbc 3048 73bd 8021 84bd
00000050: 22b7 cd3d e453 a0bd b1b5 80bd 7ea1 f4bd
00000060: e873 d2bc 5245 123d 1235 c8bd 76cd c13b
00000070: 51df 123e 787f 82bd 040f 40bd 9952 dabd
00000080: beeb 343e 7d48 4e3d 81f2 8e3c e803 893d
00000090: cb05 a7bd 6a79 4f3d c2b7 1c3e d55a c5bc
000000a0: 0f8b 803d 8544 e83e fefc ccbc 8cda 1d3e
000000b0: b4d8 f73d 55d2 21be 98b8 4b3d 224c bd3d
000000c0: 0afc a93d 2f30 38be 8ce1 2bbe 9a02 b9bd
000000d0: d765 923c 36aa 4dbd e271 fcbd 923e 2e3d
000000e0: 0c27 553c 0596 b9bd 47d0 213e da3a 7cbc
000000f0: b2be 633d eede 0cbe ac7b 543d caf7 9b3d
00000100: ff8e e93d 9d66 bf3d a01b d2bd 98ed cdbc
00000110: cb00 0d3e 7b97 743d 33d6 85bc 190e fbbd
00000120: 8870 303c 2cd8 c43c fef2 abbd e9e3 233d
00000130: d64d ffbc 0032 023d 2ad7 4f3d 7b85 223d
00000140: 80da b03d 7585 5d3a ea53 b9bd 44e3 073e
00000150: fddf 4fbe b528 4f3e a847 dbbd e8d4 123e
00000160: 2527 71bd d97f b53b 07de f93d 85cf 30bd
00000170: 8775 523e 0666 833e 9d99 7a3e f18c e63b
00000180: 0bc9 103e 53fe a7bd ad80 463e 077f 103e
00000190: 4f97 8a3d 59d9 363e c247 e53d b4fe a6bc
000001a0: 680b 173e c18e 033e 3d0e 083e 29a2 5cbd
000001b0: cbcf 153e f51c 363d 1c15 1fbd c856 5dbc
000001c0: 27bc 06be 11a5 76bd 6635 d7bc 7141 b33d
000001d0: e12a 133d a389 a93d 1272 c33c d994 8c3d
000001e0: a8a1 dbbd b59f 433d 35ca d43c af6e e4bd
000001f0: 78e0 dd3c c8f4 0dbe bc01 973d 7bcd a43d
00000200: 20df b4bd 541e bbbc 5fd7 dd3d be3c 21bd
00000210: 564b 64bd be8d 1fbe 4b6f 11bd 10d0 25be
00000220: a428 77bd 2a4b e53d e1b0 aebd e79f d53d
00000230: 1fee be3d 4e5e 07be c341 12be 1892 acbd
00000240: 3360 0bbe 0719 55bc 9285 04be abf2 723d
00000250: cb81 eb3d 7910 753c 90ba 1e3e 93aa ec3d
00000260: afb8 c0bd 5751 4e3c d6b7 e9bc 1df7 01be
00000270: 7c99 31bd e6f1 80bd 586b 55bd 9acb b63d
00000280: edfa ff3d 9739 ad3d 6bd7 003e 3762 303d
00000290: 73cf b7bd 0d12 e43c 86ed 2c3e f843 263e
000002a0: b43c f83d 1f2d fbbd ab5e b5bd ac80 bc3d
000002b0: 03fa 203e c06d 633e 66d0 883d c84a 843e
000002c0: 0765 c23d 9e57 563e ebdc 34bd ed7b 44bd
000002d0: 9bc3 f43c 9e7b d93d 6d32 533d 79a6 c8bd
000002e0: a2bb ce3d 6e4c c03b 75b2 eebd 3234 ae3c
000002f0: 9629 2bbd 1a1e cd3d 16fc eb3d ace8 083d
00000300: ba67 08be 6a65 74bc 66f5 f8bd 528b 52bc
00000310: c3c3 01be ea16 dc3d 9d09 663d de11 7c3d
00000320: 2486 d93c eeb5 e9bd e67f 13bd cabc 113d
00000330: b644 5cbd f58b 6cbd 30bf d53c 4c95 e93c
00000340: 713e 193e ad12 e7bd 78ce 84bd 4837 173e
00000350: 8b56 66bd c098 aa3e 0dde 123e b483 01bd
00000360: 0888 7ebd 37d6 953c e11b 69bd ebd1 3dbd
00000370: a6b3 053e 4536 fabb a0f2 073c bcc0 7c3e
00000380: fd8f 633e c1b3 333e eb4c 53bd 2107 4b3b
00000390: 6e73 d83d 708d 943c 2516 cf3d 8a39 c53d
000003a0: 9c1b 263d 8e92 8c3d de19 663d c93b 223d
000003b0: c35a d7bd 23f6 143e a364 00be 5b53 ec3d
000003c0: f8ae 853d d39f d83c 0c67 88bd a240 473d
000003d0: 79c9 09be f199 90bd eff3 bbbc bed6 d7bd
000003e0: b7f1 c3bc 9651 d0bd cc47 8e3c 4e6d 8ebd
000003f0: a395 dd3d 5a4b a8bd 42b7 e63c 0566 78bd
-0.0423399 -0.0333693 -0.09950124 0.09655494 0.13881125 0.19557506 0.14727211 0.1441486
-0.024636887 -0.016632238 0.07438799 -0.00074691494 -0.05124961 -0.14582844 0.13451162 -0.13901657
0.099026866 -0.0086225 -0.059395015 -0.06451702 0.100446954 -0.07828501 -0.06284655 -0.11944865
-0.025690034 0.03571064 -0.09775747 0.0059143854 0.14343001 -0.06371969 -0.04688932 -0.106602855
0.17668054 0.0503621 0.01744962 0.06690198 -0.08155402 0.0506529 0.15304473 -0.024091164
0.06276523 0.45364776 -0.02502298 0.154154 0.1210188 -0.15802892 0.04973659 0.09243037
0.08300026 -0.1798713 -0.16785258 -0.09033699 0.017870827 -0.050211154 -0.12326409 0.04254014
0.013009798 -0.09061817 0.15802108 -0.015394891 0.055601783 -0.13756916 0.051875755 0.076156214
0.114042275 0.09345744 -0.10259175 -0.025137708 0.13769834 0.059714776 -0.01633749 -0.12258548
0.010769017 0.02402886 -0.083959565 0.040012274 -0.031165045 0.031785965 0.050742306 0.03967808
0.086354256 0.00084503676 -0.090492085 0.13270289 -0.20300288 0.20230372 -0.10707027 0.1433903
-0.05887522 0.0055389223 0.122005515 -0.043166656 0.20552646 0.25663775 0.24472661 0.0070358445
0.14139192 -0.08202805 0.19385023 0.14110957 0.06767141 0.17856349 0.11195327 -0.020385124
0.14750445 0.12847425 0.13286681 -0.053865585 0.14630048 0.04446121 -0.03883849 -0.01350946
-0.13157712 -0.060216013 -0.02627058 0.08752716 0.035929564 0.08278205 0.023858104 0.06864328
-0.10724193 0.04775973 0.025975326 -0.11153924 0.027084574 -0.13862908 0.07373378 0.08047005
-0.0883162 -0.02284161 0.108320944 -0.03936457 -0.05573591 -0.15581414 -0.035506528 -0.16192651
-0.060341492 0.11195977 -0.08529831 0.104308896 0.09322762 -0.13219568 -0.14282899 -0.08426303
-0.13610916 -0.013006455 -0.12941578 0.059313457 0.114993654 0.014957541 0.15500855 0.11555972
-0.094102256 0.012592635 -0.028530043 -0.12691922 -0.043359265 -0.062961385 -0.052104324 0.08925553
0.12499032 0.0845825 0.12582175 0.043062415 -0.08975115 0.027840639 0.16887483 0.16236866
0.12120953 -0.122644655 -0.08855947 0.0920423 0.15720372 0.22209835 0.06680374 0.25838304
0.09491926 0.20931861 -0.044155996 -0.047969747 0.029878428 0.10619281 0.05156176 -0.09797377
0.10094382 0.005868486 -0.11655132 0.021265123 -0.041787706 0.10015507 0.11522691 0.03342502
-0.13320819 -0.014916757 -0.12156181 -0.012850599 -0.12672333 0.10746558 0.05616151 0.061540477
0.026553221 -0.114116535 -0.036010645 0.035580434 -0.053776465 -0.05775066 0.026092142 0.028513573
0.14965226 -0.11282859 -0.06484693 0.14767182 -0.056234878 0.33319664 0.14342518 -0.031619743
-0.06214145 0.018290622 -0.056911353 -0.04634277 0.13056812 -0.007635864 0.008297592 0.24682897
0.22222896 0.1754904 -0.051587027 0.003097959 0.105688915 0.018133849 0.101116456 0.09630115
0.040553674 0.068638906 0.056177013 0.039607797 -0.10515358 0.14547019 -0.1253839 0.11539336
0.06527513 0.026443398 -0.0666028 0.048645623 -0.13455762 -0.07060612 -0.022943465 -0.10539006
-0.02391897 -0.10171811 0.01736822 -0.06954442 0.108195566 -0.08217497 0.028163556 -0.06064417

fc2.bias f4 [64]
00000000: c770 19bd 5140 ffbd 76eb 223e 4c04 b8bc
00000010: b390 15be 17cd a9bd fd52 4cbd fc65 1bbc
00000020: c6c2 1e3c 61b1 ac3d f7a6 2abc 413d 02be
00000030: 9e75 02be 319d c43d 33e0 7a3d 2d64 9abe
00000040: f390 193e 9204 953b 2243 57bd d429 7e3d
00000050: 5ae3 243d 2bb0 90bc 0ca2 093e c021 12be
00000060: 4c08 e0bd 333d 29bc e40f f03a 6499 e83c
00000070: 3176 e63c 16cd c9bd 901d b7bd b5bf e6bd
00000080: 50d9 8c3b dc87 2cbd 1831 42be 32d4 26bd
00000090: 087f 2cbe 3096 c33d ed88 bcbd 9c14 0abe
000000a0: 7766 bb3d eac0 81bd 918d ca3c 059a bd3d
000000b0: e8fb df3c fb7b 6dbd eafb 04be daaa d138
000000c0: 56a6 d23d b92f 1f3d f5b6 bbbe 20f5 e2bd
000000d0: 4f3f 8ebe 8a21 93bc a039 81bd 6097 80bc
000000e0: 60a9 943d 3c21 0c3e 8276 0e3d 2964 f5bd
000000f0: 0e06 7cbe c5af f5bd b97c e33b 8877 0cbd
-0.03746107 -0.12463439 0.15910134 -0.022462986 -0.1460598 -0.08291071 -0.04988383 -0.009484764
0.009689992 0.0843227 -0.010415784 -0.12718679 -0.1274018 0.096002944 0.06124897 -0.30154553
0.149967 0.004547664 -0.052554257 0.06205161 0.04025588 -0.017662128 0.13440722 -0.14270687
-0.109390825 -0.010329532 0.0018315283 0.028393455 0.02813253 -0.0985357 -0.089411855 -0.11267034
0.0042983666 -0.042121753 -0.1896404 -0.04072971 -0.16845334 0.0955013 -0.09205804 -0.13484424
0.09150403 -0.063356236 0.024725707 0.092578925 0.027341798 -0.057979565 -0.12986723 9.99772e-05
0.10285632 0.03886387 -0.36663023 -0.1108191 -0.27782676 -0.017960329 -0.06309819 -0.015697181
0.07258868 0.13684553 0.034780987 -0.11981995 -0.24611685 -0.11996416 0.0069423583 -0.03429368

fc2.weight f4 [64, 64]
00000000: 1373 d23b 9113 a7bd dff3 1f3c da27 973d
00000010: 19d2 82bd 37f5 9a3d 7214 3dbd d6c9 f83c
00000020: e984 13be b507 e0bd 213e 9c3c 849c a0bd
00000030: 39bf 9fbd f5e4 ecbd cb74 dfbc 3b58 d13b
00000040: ca88 9d3c 1c15 253d 7dab 753d 3036 cc3c
00000050: 1cf5 533d e772 22be bf4f 9bbd 02ee b13d
00000060: 978c e23c a02b 91bc 6265 fabd 7f8e a9bd
00000070: 764b 283d 143c 1bbe 598f 403d e571 9fbd
00000080: 8869 acbd efcb dcbd 75c5 a8bd 59ea 2bbe
00000090: 7ba5 d6bc 9bb3 c8bc 99a0 1fbe ffcb 09be
000000a0: b9db ddbd 2b06 23be 47c5 28bd c692 8f3c
000000b0: a36b 8d3d 6a51 e7bd 9c47 81bd 06ef ccbc
000000c0: 16e9 cebd aea4 25bd 5c94 893d d366 553d
000000d0: 9e66 993d d5a6 133d 5a6e d7bb d020 3ebc
000000e0: c645 f1bc 8a35 94bc 4323 abbd 09a0 bfbd
000000f0: 5b55 64bd 62d6 a5bd 4967 debb 0a25 cbbd
00000100: 0e94 8d3c ac8a 5fbd bdd6 533d f50b a53d
00000110: db77 023e 9330 093e c538 bfbd 8286 5cbd
00000120: ca20 bfbd 1069 803d d689 d63d 49aa 603d
00000130: ba53 fcbc a7a8 883d 3734 02bd 40c2 ea3b
00000140: 5dec cebc 60ba 393d 4be3 7a3d 92e7 e83c
00000150: 563b c53d 2351 083d dcd8 0d3c b116 8abd
00000160: 94bb 49ba b615 593d 41e7 843d 923c d2bd
00000170: b698 be3d d75b 7e3d 4240 683d 4af2 adbd
00000180: aed1 0dbe e31b fb3c 9a41 09be ba77 0c3d
00000190: 6f1f 75bd a2bf 1c39 db7f 06be 32d4 e5bd
000001a0: e57b 04bd 3f67 f73c 33b1 51bd 51f9 5ebd
000001b0: d3fb a03d 845b bebd 170f 673c 12b7 e7bd
000001c0: 6065 96bd bde9 9a3c 5b33 19bd 9108 02be
000001d0: f8e7 f8bd 84e4 683b 4512 8c3c 74ea da3d
000001e0: c8aa c3bd f11f c8bd 7ca7 a8bd 5092 86bd
000001f0: d06e 9bbc f3a0 66bd 209a 03bc 262b 973c
00000200: fadf 8a3d 9307 08bc f18d c4bd ddbc a9bb
00000210: 2a89 903d 8201 8fbd 4c70 62bd 5ccf 4ebd
00000220: 34cf 2ebe 9287 803d 1ba8 9d3d 8345 073e
00000230: 25f2 17be f019 b83d 1c37 a0bd 94dc 5f3d
00000240: 643a d9be 64f9 0a3e fabe b03d a842 edbd
00000250: 1da4 863c 3091 ccbd c3c8 993c 55ff 683d
00000260: 397d 103d 2fe2 42bd c7e8 ecbd d914 bab9
00000270: 88c2 0c3c 22f0 283e 661b c0bc 7dbe b33d
00000280: 7889 063e d101 de3d 0788 a93d 9e12 f43d
00000290: 4c5a a2bd d7c9 bf3d ce58 e2bc cafe 203b
000002a0: 340b b33d 4f7d 693d c43b e83c ca86 01bc
000002b0: e9b7 06bc 121a abbc bdc3 9bbd 0da4 98bc
000002c0: ce46 283d 27b7 21bc 36dc 6bbd 6cc5 3f3d
000002d0: 5a72 35be 3e3c 8a3d 784a dbbd fc2c 96bc
000002e0: 0e55 113e c1bf df3d 53a3 963d 7116 013e
000002f0: 979f 893d b3a7 ec3c 4e21 60be 3d44 01bd
00000300: 7d86 913e 4205 62be 3953 0fbe 8e70 13be
00000310: 8793 243c d52e 7bbd 1178 76bd 26c6 a6be
00000320: 7870 44bc 42b4 8f3d 9cc1 4bbe 9225 17be
00000330: f12a ce3d 6db3 85bd 4ccb e8bd cedb 483d
00000340: 724b 0bbe 79e2 5abe 3ffc 463e 39d1 a83d
00000350: 46e5 7ebd 1ee8 263d 21c4 fdbc 120e 63be
00000360: 9e88 8cbd 1742 143d 2a4c 66be 7f93 013e
00000370: 21a5 0c3e 7357 3abd 3660 c0bc 0238 0e3e
00000380: d495 5ebd a13e 23bd 1cad 1fbe 582d 013b
00000390: 88f5 6f3d fd29 ccbd ebd5 7ebe 7ee8 0a3d
000003a0: 8013 01be 2552 8fbd 01d2 c03c d644 01bd
000003b0: cd0f 003e c135 09be 2c13 3b3d 8f5f 62be
000003c0: d5b9 003d c27d 26be b35a 033e e3c0 423d
000003d0: c25e 843d f3c2 333c b315 843c 8373 ca3d
000003e0: 5311 37bd 5acf 483e bac1 563d a2e5 7cbe
000003f0: b2e1 963c 910f 353d aaae 20bf ee0b c3bd
0.0064224093 -0.08158029 0.009762733 0.07380648 -0.06387729 0.07566302 -0.046162076 0.03036968
-0.1440617 -0.1093897 0.019072594 -0.07842353 -0.07800145 -0.115671076 -0.02727737 0.0063886917
0.019230265 0.040303335 0.059977997 0.024928182 0.051747426 -0.15864144 -0.0758357 0.086879745
0.02765493 -0.017720997 -0.122263685 -0.08279132 0.04108759 -0.15159637 0.047011707 -0.077853955
-0.08418566 -0.10781085 -0.08240787 -0.16788615 -0.026201954 -0.024499705 -0.15588607 -0.13456725
-0.108329244 -0.15920322 -0.041203763 0.017526042 0.06905296 -0.112948254 -0.063124865 -0.025016319
-0.10103051 -0.040440254 0.067177504 0.052100014 0.07490276 0.036047775 -0.006574434 -0.011604503
-0.029452216 -0.018091936 -0.08356335 -0.09356696 -0.055745464 -0.08097531 -0.006787215 -0.09919174
0.017282512 -0.054575607 0.051718462 0.08058921 0.12741034 0.13397436 -0.09337 -0.053839214
-0.09332426 0.06270039 0.10475509 0.054849897 -0.030801643 0.06672793 -0.031788077 0.0071642697
-0.025259191 0.045343757 0.06125192 0.028430734 0.09630458 0.033280503 0.00865766 -0.06742609
-0.0007695493 0.05299922 0.06489421 -0.10265459 0.09306471 0.062099304 0.056701906 -0.084934786
-0.13849518 0.030652946 -0.13403931 0.034293868 -0.05984443 0.00014948708 -0.1313471 -0.11222114
-0.032344718 0.030200599 -0.05119438 -0.054436985 0.07860532 -0.09294799 0.014102719 -0.11314215
-0.073435545 0.018910283 -0.037402492 -0.1269858 -0.121536195 0.0035536597 0.017098555 0.1068925
-0.09554058 -0.09771717 -0.0823507 -0.06570876 -0.018973738 -0.056305837 -0.008032352 0.018453192
0.067810014 -0.008302587 -0.09597386 -0.005179985 0.07057412 -0.069827095 -0.055282876 -0.050490722
-0.17071229 0.06275858 0.07698079 0.1321011 -0.14838465 0.08989322 -0.07823011 0.05465372
-0.4242736 0.13571697 0.08630176 -0.11584979 0.016435677 -0.0998863 0.018772488 0.05688413
0.03527567 -0.047578987 -0.11567836 -0.00035492217 0.008591302 0.16497853 -0.023450565 0.08776567
0.13138378 0.1084019 0.08277898 0.119176134 -0.07927379 0.0936467 -0.027630236 0.0024565929
0.08742371 0.05700427 0.028348811 -0.007905671 -0.008222559 -0.020886455 -0.076056935 -0.018632913
0.04108315 -0.009870327 -0.057583056 0.046819136 -0.17719403 0.067497715 -0.10707563 -0.018331997
0.14192602 0.10925246 0.073553704 0.12606217 0.067198925 0.028888559 -0.21887705 -0.031559218
0.2842292 -0.22072318 -0.1399659 -0.14398405 0.010044939 -0.06132396 -0.060173098 -0.3257305
-0.011989705 0.07016803 -0.19898075 -0.14760426 0.10066784 -0.065283634 -0.11366901 0.049037747
-0.13602999 -0.21375455 0.19432162 0.08243031 -0.06223037 0.040748708 -0.03097731 -0.22173336
-0.06861995 0.03619584 -0.22489992 0.12653922 0.13734867 -0.045493554 -0.023483377 0.13888553
-0.054342106 -0.03985465 -0.1559338 0.0019710865 0.058583766 -0.09968946 -0.2488629 0.033913128
-0.12605095 -0.0699809 0.023537638 -0.031559788 0.12506028 -0.13399412 0.04567258 -0.22106765
0.031427223 -0.1625891 0.12827568 0.047547232 0.06463386 0.0109717725 0.016123628 0.09885313
-0.044694256 0.19610348 0.052430846 -0.24696973 0.018418167 0.0442043 -0.62766516 -0.0952376

fc3.bias f4 [64]
00000000: fca7 75be 64d4 613b c5c0 aebd fad5 973c
00000010: 9d85 153b 7889 073e 6aa5 c1be 9d10 b1bd
00000020: 8b1f 3cbd 129b 46bd 18dc 053e 2e90 10bd
00000030: c802 183e baa1 8dbd b13d bb3b 9b4c 20be
00000040: 8706 d93d ab55 b9bd ab62 c13d e134 b0bd
00000050: 84d1 753c e493 dcbd d33b 9c3c db22 5dbd
00000060: fd3c 883d 28d6 ad3b 45d9 96bd e322 c9bd
00000070: dc2e 6a3d 6c19 5dbd 0a8b 9a3d 0b6b b83d
00000080: 8ecf 593d 4c04 26be 9dc7 3cbd b4fb 8d3d
00000090: d95b ef3b 0d24 be3c 377a 5f3d eece 8b3d
000000a0: 2704 1abe 9518 c4bc 1e6f 8dbd a42c 5bbd
000000b0: 75d0 523d 26a6 263c fa97 fabd c035 ea3c
000000c0: df5d 1abe 2e05 d13d 85a4 e83d c26e 88bd
000000d0: e4f5 a93d a9a3 fdbd 4382 4e3d ee87 d53c
000000e0: 1f68 d0bd a70f b8bd d3b4 613d fd32 cd3d
000000f0: f010 aabd f1ce 373d 556b 21be 0127 cdbd
-0.23989862 0.003445887 -0.085328616 0.01853465 0.0022815235 0.13236034 -0.37821513 -0.08645747
-0.04592852 -0.04848773 0.1307224 -0.03529375 0.14844811 -0.069156125 0.0057141413 -0.15654223
0.10596948 -0.09049543 0.094426475 -0.08603836 0.015003566 -0.107703954 0.019071495 -0.05398832
0.066522576 0.0053050704 -0.073656596 -0.09821107 0.057173595 -0.053979322 0.07546051 0.09004792
0.053176455 -0.16212577 -0.046088804 0.06932774 0.0073046503 0.02321055 0.054559913 0.06826578
-0.15040646 -0.023937503 -0.069059595 -0.05350937 0.05146833 0.010171449 -0.122360185 0.028590083
-0.15074871 0.10206066 0.113595046 -0.066617504 0.08298853 -0.12384731 0.050417196 0.026065793
-0.101761095 -0.089873604 0.055104088 0.10019491 -0.08304012 0.04487509 -0.157636 -0.10017205

fc3.weight f4 [64, 64]
00000000: 9b1c a8bd 6587 063e 4338 023d 0f7c fa3c
00000010: 3dfd 7b3c d354 9ebe c0ca 453c bdfd 223d
00000020: 7c35 bf3d 571a 033d 70f9 a03d 3e87 ee3b
00000030: 30e2 cd3d c68f 5238 4752 1cbe e008 7f3e
00000040: 6a47 4f3d cbf6 943d d4ab 0fbe 8d03 18bd
00000050: 72b4 8a3c e12c 3d3e 1023 fe3d 733f 4abd
00000060: 18c9 f3bc e275 663d 6fb1 edbd 92be a0bd
00000070: d8e7 543d 013e 643b bfc5 893d 48e2 c5bd
00000080: 0176 f2bd 8033 8ebd 612e c43d 138d 2fbe
00000090: 61f7 ae3d 4f7a 29be 1823 85bd c6d1 5e3d
000000a0: e61f 13be d045 ef3d b732 6fbd 023a 3bbd
000000b0: 3d84 38bd a0e1 2bbd ab1c d8bd ca01 533d
000000c0: 2121 bfbb 0eeb 7a3d 1c07 ecbc 8878 fe3d
000000d0: a85d 5ebc 43ad 7abc 9fb4 b63c 7b19 25bd
000000e0: c524 0bbe 60c0 d8bd a0e6 c4bd ddb7 b3bc
000000f0: a5ef 9d3e 3bd2 54be 3a63 d5bd fbfb 0abe
00000100: 8516 99bc daf1 64bd 78a2 42bd d2da 0dbd
00000110: fb02 4dbd 5cc0 a1bd 26bf 5c3c c806 84bb
00000120: 37aa 183b 2c6c 473d c187 1dbd ed37 cabd
00000130: 96e8 a2bd 3b0f 173e c1c9 07bd 5b46 483d
00000140: 0741 22be 0c9f c53d d253 0b3e a345 9f3c
00000150: d0e8 d33c 1169 7a3d 7267 db3d 70de 00bc
00000160: c99a cd3c 92db f1bd a58d 1b3e e225 463d
00000170: 5783 b1bd 4d8d 45bd 01a7 c83d d07e abbd
00000180: abaa c1ba b1b1 7cbd ba10 a7bc 2706 17be
00000190: 4891 bb3d ccbd e7bc 93a2 793d 4c10 17be
000001a0: d72d 0abd 4ebb a7bd ec2e c33d 9682 123d
000001b0: a3db f9bc 9225 e1bd 50f0 0f3d 2f92 263e
000001c0: 7e64 94bd 6b2f 42be c060 793d e1a8 d73d
000001d0: cd4b a7bd be83 98bd 5f50 14bc 4a30 f33d
000001e0: 6966 e2bd 5971 b33d 8dc7 f4bc 11fb 703d
000001f0: f199 0c3e 23a8 a7bb 9f3b 023c 1bab 07bd
00000200: e089 f4bc 93e2 0a3d 9909 223d 144a c53e
00000210: d9c9 04be 006f 3d3e dfe1 243d 946b 123c
00000220: 3d1a bf3d 2ad7 59bd fac8 ce3d 3730 16bb
00000230: 9c4e c0bd 230b 73bd 1f74 ebbd 33fb cd3e
00000240: 79ea f6bd 9aac 81bd 0b5d 7f3d a7c9 1e3d
00000250: d9fe 1abd fb27 053e 926a c6bb f31e ce3d
00000260: 98b6 0d3e 0ff1 debd d36a 07bd de6e dabd
00000270: de07 d33c 23dd c23c 2f8c d63d 28d8 c33d
00000280: 8bd6 413d 9b6e 96bd ddca 1cbe 525b 4939
00000290: 60b1 293a b0bf 923d f5cf 78bd d195 c53d
000002a0: 9d49 f3bd 6cc6 77bd b76b af3d 7e05 083d
000002b0: 960b 1e3e 1ca0 31be 90da 033e d11d fc3a
000002c0: eddc 8cbd 0a8b 19bc 8c93 153e 660d 4b3e
000002d0: 784e 0b3e 039a 2e3d 16e7 debc 8b33 71be
000002e0: 68db 1cbe 2810 b4bd f619 863d ca2a 39bd
000002f0: 1b85 d9bc f8a7 0c3e 6fae d13d c0ea 92bd
00000300: c221 de3d aa40 af3d ed99 f0bd 78fe 48bd
00000310: be1e f03d 7f20 02bd b631 c03b 5906 03bc
00000320: 333d 11bd cc50 3abd f28a 083e 0b47 a0bd
00000330: cdd1 c23d 9190 fabd cd92 203e bdd5 143e
00000340: 38fc c93d ad43 1b3e 9617 a3bc 91f5 053d
00000350: 6c07 b0bd df8f 093e f425 c1bd 50d2 38bd
00000360: ca86 a9bc a5aa 6b3c 73f8 07be 2e20 4dbc
00000370: 66d8 86bd 938e 453d beaf 873c c662 e1bb
00000380: d0e0 fe3d 7411 a7bc 3786 593d 2fc5 f03d
00000390: 27e3 9a3d 81ed c7bd e0f4 97bb 6728 1d3e
000003a0: 0203 0f3d b043 67bd 0029 8ebc 8fdc f8ba
000003b0: 417f 113e 67c7 983d 11a5 883b 955c fd3d
000003c0: 9cd2 c73d ade2 9a3c 72b3 99bd 9c10 37bd
000003d0: 303a 063e 0b79 9abd 80e9 b9bd 9af2 1abd
000003e0: 75d3 fd3d c450 0abe 055b 1f3d 5f6f 0abd
000003f0: 935c 983c 5a96 a2bd 93ff edbd b54a 053d
-0.08208581 0.13137586 0.031791937 0.030576734 0.015380201 -0.3092409 0.012072265 0.039792765
0.09336373 0.03200754 0.078600764 0.0072793057 0.100529075 5.02018e-05 -0.15265761 0.2490573
0.050605215 0.072736345 -0.14030391 -0.03711276 0.016931746 0.18474151 0.124090314 -0.049376916
-0.029758975 0.056264766 -0.116061084 -0.078488484 0.051978916 0.0034826996 0.0672717 -0.096623
-0.11838914 -0.069434166 0.095791586 -0.1714366 0.085432775 -0.16550563 -0.06500834 0.054399274
-0.14367637 0.116832376 -0.058397975 -0.045709617 -0.045047987 -0.04196322 -0.10552343 0.051515378
-0.0058328067 0.061259322 -0.028811984 0.12425333 -0.013572134 -0.015300098 0.022302924 -0.040307503
-0.13588245 -0.105835676 -0.09614301 -0.021938259 0.30846897 -0.20783322 -0.104193166 -0.13572685
-0.018687496 -0.05589471 -0.047518224 -0.03463251 -0.05005167 -0.07898018 0.013473308 -0.0040291287
0.0023294815 0.048687145 -0.038459543 -0.09873948 -0.079545185 0.14751904 -0.033151392 0.04889522
-0.15845118 0.096494764 0.13606194 0.019442385 0.02586785 0.061135355 0.1071309 -0.007865533
0.025098221 -0.11809458 0.15190752 0.04837597 -0.08667629 -0.048230458 0.097974785 -0.08373797
-0.0014775594 -0.061692897 -0.020393718 -0.1474844 0.091585696 -0.028288744 0.06094606 -0.1475231
-0.033735123 -0.081900224 0.09530434 0.035769068 -0.030500239 -0.10993494 0.03514129 0.16266702
-0.0724573 -0.18963401 0.060883284 0.10530258 -0.08168755 -0.07447003 -0.009052365 0.11874445
-0.110546894 0.08761854 -0.02988031 0.058833186 0.13730599 -0.005116479 0.007948785 -0.033122163
-0.0298509 0.033907484 0.039559934 0.3853308 -0.12967624 0.18499374 0.04025447 0.008936781
0.093311764 -0.053183712 0.10096927 -0.0022916922 -0.093899935 -0.059336793 -0.11496758 0.40230712
-0.12056441 -0.06331749 0.062344592 0.03876653 -0.037840698 0.13003533 -0.0060551846 0.10064497
0.13839185 -0.10885822 -0.03306086 -0.106656775 0.025760587 0.023787087 0.10475957 0.09562713
0.047323745 -0.07345315 -0.15311761 0.00019202873 0.00064732693 0.07165468 -0.0607452 0.09647716
-0.11879275 -0.060491964 0.08565467 0.033208363 0.15434107 -0.17346233 0.12876344 0.001923496
-0.06878076 -0.009371528 0.14607066 0.1982933 0.13604152 0.042627346 -0.0272098 -0.23554818
-0.15318072 -0.08792144 0.065479204 -0.045206822 -0.026552727 0.1373595 0.10238349 -0.07173681
0.108462825 0.085572556 -0.11748109 -0.049070805 0.117246136 -0.031769272 0.005865301 -0.007997119
-0.035458755 -0.04548721 0.13334253 -0.0782605 0.095126726 -0.12234605 0.15681 0.1453466
0.0986256 0.15162535 -0.019908708 0.032704893 -0.085951656 0.13433789 -0.09431067 -0.045122445
-0.020694155 0.014383947 -0.1327837 -0.012519879 -0.065842435 0.048231672 0.016563293 -0.00687823
0.12445223 -0.020394064 0.053106513 0.1175636 0.07562857 -0.09762097 -0.0046373457 0.15347444
0.034914978 -0.056461036 -0.017353535 -0.001898663 0.142087 0.07459908 0.004170068 0.12371174
0.097569674 0.018906916 -0.075049296 -0.044693574 0.13108134 -0.07542618 -0.0907774 -0.03782902
0.12393848 -0.13507372 0.038905162 -0.033797618 0.01859883 -0.079388335 -0.116210125 0.03254195

fc4.bias f4 [64]
00000000: 2de0 ce3d cff4 08be 02b6 253e 36e4 b73d
00000010: 8f79 153c 481a 0cbd a665 e23c 4092 d7b9
00000020: 518f b7bc 955d e9bc 8eeb 5fbd af04 e93c
00000030: 54dc 013d 9f2a 59bd 5730 b7bd e818 a23c
00000040: acb3 87bd 8846 b43d 74db 8f3d a9d4 69bd
00000050: df0c dabc df6c e4bd 5752 ba3c 8053 ca3c
00000060: e689 d53b fd6a 163d 2aaf f4bd 68cc febc
00000070: becf 2dbd 9394 91be f003 993d 74bb 74bd
00000080: 5894 a23d e36c afbc 364d e6ba a9de 25be
00000090: 7930 183d e400 80bd 9fdc 17bd 030a 44bd
000000a0: 95aa 223d 8d20 87bc 728e 01bc affb b83d
000000b0: 4bd6 b1bd 8eb2 233e e879 b53d 9afb 0e3d
000000c0: 44f4 b3bd 0d5d f33b ece6 013d 9bae 0bbe
000000d0: ac47 833d 96b0 f73c 0a88 fbbd 99f1 9d3d
000000e0: 11b6 343d a3c5 f73c a5e0 be3d 7887 b1bd
000000f0: b6e1 a43d b81c a73d b31c 8ebc 20b2 eebd
0.10101352 -0.13374637 0.16182712 0.08979075 0.00912322 -0.03420475 0.02763636 -0.0004111696
-0.022407206 -0.028487006 -0.054668 0.028444616 0.031704262 -0.053019162 -0.08944767 0.019787267
-0.066260666 0.08802515 0.07024279 -0.057087574 -0.026617466 -0.11153578 0.02274434 0.024698019
0.006516683 0.036723126 -0.119474724 -0.031103328 -0.042434447 -0.28433666 0.07471454 -0.05974908
0.079384506 -0.021414226 -0.0017570618 -0.1619822 0.037155602 -0.0625017 -0.037075635 -0.04786111
0.03971346 -0.016495014 -0.007907497 0.0903238 -0.08683451 0.15986082 0.088611424 0.034907915
-0.08786824 0.007426864 0.031714365 -0.13640825 0.06410155 0.03023557 -0.12281807 0.07712097
0.044118945 0.030245608 0.09320191 -0.08668417 0.080508634 0.081597745 -0.01734767 -0.116550684

fc4.weight f4 [64, 64]
00000000: 4374 bb3c 06a7 65bd 1f47 b63d 95f6 6abd
00000010: 96d2 4dbd 43be dc3d e049 1abd 1ec8 c4bd
00000020: 4e51 26be 7bb0 f0bd 3e2a 90bc 6b46 0a3d
00000030: fc2b ecbd 8629 13be c760 253d 18aa 83bd
00000040: ad5d 0fbd be6c 993d 9543 3bbd b8cc c43c
00000050: 1d47 9e3c 3182 dcbc 24bc e93d d170 dc3d
00000060: ee1d 82bc 0009 81bd 7754 26bd 1088 59bb
00000070: 421e 723d 356e 24bc d08d b63d cddf ae3b
00000080: 2616 e6bd 2974 4abc 89df 52bd 6b97 8d3d
00000090: a226 c93c 7407 a63d 498e 26ba f15d f4bd
000000a0: 41f4 243d 746c f8bd e1f0 cabd d778 06be
000000b0: 8593 053d ffdc 1bbe 0da4 47bd 1397 773c
000000c0: 5ef6 4abd 8a08 8ebc cf70 773d 2d4f 8e3d
000000d0: b07d debd 3c69 933d cd4c d7bd 24a9 243c
000000e0: 4e23 8dbd 2c86 11be 2f01 1d3d 190e 48bc
000000f0: 629b aebd ba96 033d 6434 a43b 0f20 acbd
00000100: 20cb ecbb e3ef 843c 3066 3ebc 1b09 d1bd
00000110: 457f 303d aeda e1bd 4921 18be 2182 8ebd
00000120: c252 debd d343 0dbe 043a b53c 52a0 c1bd
00000130: e321 f3bd 1878 bdbb 0dd4 973d 3ec9 aab8
00000140: cc6e 93bd bbca 8bbd 7b51 6fbd da4d 473c
00000150: 970e c03c 6de9 9f3d 4648 babd aaa9 9abd
00000160: b50c 483d 9ca7 e0bd 2d31 803d 619b 64bc
00000170: 3230 60bd 60b6 0abe 8503 1f3d 575a f6bd
00000180: 71fc 4dbb 0ce9 abbc 90fd cdbc a031 1abe
00000190: 121b b13d 42b2 ccbd b334 9a3d b66a b33c
000001a0: 80f2 053d fef5 74bd 5f1f 63bd d0a2 893d
000001b0: 7fed 8cbd 0093 783c ace1 9a3d 1189 5fbd
000001c0: 3ec5 3bbd d927 aa3d bb41 00be e1b1 09be
000001d0: 3854 7e3d 8598 c23d 2bd6 8e3d 34ff 1b3e
000001e0: 7f91 acbd d068 24bd e655 d6bd 872d 6d3d
000001f0: f169 233d 7435 b13d 23ac 2e3d 8695 14be
00000200: 5b90 aabd 06ab 073e 90dd ce3b 46b3 e5bb
00000210: 8662 fc3d 1966 bcbb 2b1a e9bc 4f64 c3bc
00000220: 9fec 483b 5e7c 6dbd ba65 7cbd 6cd2 003e
00000230: 9546 1cbe 08dc 3f3d ff2b d3bd f891 013e
00000240: a01c 1d3d 5758 5e3c 6f34 3bbd 7766 84bd
00000250: 572e 30bd a407 8fbd 2bb5 a9ba 54ed 8f3d
00000260: f21f b4bd 7c12 57bd 4f3e eb3d e1c9 673e
00000270: 04e8 d43d 92d6 803d 9942 233c 1601 ebbc
00000280: 4f02 13bd 2d85 84be c6bd 0bbe 5883 44bd
00000290: df38 c0bb aa57 2e3c 206f c23d dd5b fbbc
000002a0: 08ed 8c3d ceb0 503d 7dcc 133d 742d 223d
000002b0: f872 9ebd e0cd f3bc 4d8e 1abe 7e1a 66bd
000002c0: 54b7 65bb 0a31 b9bd 06e9 19bd 6219 98bb
000002d0: e300 6d3d a156 7dbd bafa 0a3e 05c3 e93d
000002e0: 3b37 62bd 3b4a b6bd 805e 663c 9187 8fbd
000002f0: f7bb 663c e9dd a0bc 9e6e a93d b372 893b
00000300: 9de5 13be e766 afbb bae7 6e3d 4242 d23d
00000310: ac82 c63d 6ee7 8dbd f4b1 0ebe efcc c0bc
00000320: 8ad8 a9bd c3af 013e 1209 923d 27f3 153e
00000330: d285 703d ae92 58bc 441b 0fbe 28c8 afbd
00000340: fc75 333e 8bb3 893d 299c 0abe 58dd c9bd
00000350: 5335 f23d 194b a0bd 8f97 90bd ada0 cf3c
00000360: 0a62 0c3e ce26 6d3c 96b8 48bc 77c4 c039
00000370: 201c 99bc 3ce9 c53d 88fd 32bd 08e0 f4bc
00000380: 7702 16bd 7e8b 91be 9457 75bd a1d8 a93c
00000390: f86e f63d 0b78 27bd acb3 a8bd 30de 16be
000003a0: 013f 8bbc 1180 e83d ca17 ebbc 537a eb3c
000003b0: 7e60 4b3d 6dad 773c a2ce a0bc 305a 4e3d
000003c0: a942 3cbd df02 bdbc 36be 84bd 85af b73d
000003d0: a4f3 b1bd a5ab ea3d 3996 96bd f035 a73d
000003e0: 7c1b d8bc daf1 30bc 9660 89bd 928c c73d
000003f0: ceb3 c7bd 4cc7 79bd 1108 a8bc 32f9 0eba
0.022882586 -0.05606749 0.08900284 -0.057364065 -0.05024966 0.10778477 -0.03766811 -0.09608482
-0.16241953 -0.11752411 -0.017598268 0.033758562 -0.11531827 -0.14371309 0.040375497 -0.06428927
-0.035001446 0.07491444 -0.045718748 0.024023399 0.019321019 -0.026917549 0.11412838 0.107637055
-0.015883412 -0.06300545 -0.040607896 -0.0033192672 0.059110887 -0.010036041 0.08913767 0.0053367377
-0.11234693 -0.012356796 -0.05148271 0.06913646 0.024554554 0.0810689 -0.00063535996 -0.119319804
0.040272 -0.12130061 -0.09909225 -0.13132034 0.03261139 -0.15221022 -0.048740435 0.0151117025
-0.04955136 -0.017338056 0.060410317 0.06948695 -0.10863817 0.07197806 -0.105126955 0.010050092
-0.068914995 -0.14211339 0.038331207 -0.012210392 -0.08525731 0.032126166 0.0050111283 -0.08404552
-0.007226363 0.016227668 -0.011621043 -0.10206815 0.043090124 -0.11028038 -0.14856447 -0.06958414
-0.108556286 -0.13795404 0.02212239 -0.09454407 -0.11871698 -0.0057821386 0.07413492 -8.143716e-05
-0.07198867 -0.06825777 -0.058427315 0.012164557 0.023444457 0.07808194 -0.09095816 -0.07551892
0.048840243 -0.10969469 0.062593795 -0.013953061 -0.054733463 -0.13546133 0.038821716 -0.1202895
-0.0031430984 -0.020985149 -0.025145322 -0.15057993 0.086477414 -0.099949375 0.07529583 0.02190147
0.03270197 -0.05980491 -0.05544984 0.06720507 -0.06881236 0.015171766 0.07562575 -0.054574076
-0.0458424 0.083083816 -0.12525074 -0.13446762 0.062092036 0.09501747 0.06974443 0.15234071
-0.08426189 -0.04013902 -0.104656026 0.057904746 0.039895955 0.086527735 0.04264463 -0.14510164
-0.08328315 0.13248834 0.0063130334 -0.0070098964 0.12323479 -0.0057494757 -0.02845486 -0.023851542
0.0030658615 -0.057979934 -0.06162045 0.1258027 -0.152613 0.046840698 -0.10311126 0.12653339
0.038357377 0.013570867 -0.0457043 -0.06464856 -0.043012943 -0.06983879 -0.0012947669 0.070276886
-0.087951556 -0.052507862 0.11486494 0.22635604 0.10395816 0.06290926 0.009964609 -0.028687041
-0.035890874 -0.25882855 -0.13646612 -0.04797682 -0.0058661546 0.010641018 0.09493852 -0.030683452
0.068811476 0.050949864 0.036083687 0.03959413 -0.07736772 -0.029761255 -0.15093346 -0.05617761
-0.00350519 -0.090425566 -0.037575744 -0.0046416977 0.057862174 -0.061850194 0.13572207 0.1141415
-0.055228453 -0.08900877 0.0140606165 -0.07008279 0.0140829 -0.019637065 0.08273052 0.0041945814
-0.1444306 -0.005352843 0.05832646 0.10266544 0.096928924 -0.06928907 -0.13935071 -0.02353522
-0.08293255 0.12664704 0.07130636 0.14643537 0.05872137 -0.013218565 -0.13975245 -0.08583099
0.17525476 0.06723698 -0.13536133 -0.09856671 0.11826577 -0.07826824 -0.070601575 0.02534517
0.13709274 0.014474584 -0.01225104 0.00036767471 -0.018690169 0.096636266 -0.043698817 -0.029891983
-0.036623444 -0.28426737 -0.059897974 0.02073318 0.12032884 -0.040885966 -0.08237395 -0.14733195
-0.016997816 0.11352552 -0.028697867 0.028744852 0.04965257 0.0151170315 -0.01962978 0.05037898
-0.04596201 -0.023072658 -0.06481592 0.089690246 -0.08689049 0.1145852 -0.073528714 0.08164585
-0.026380293 -0.010799849 -0.067078754 0.097436085 -0.09751092 -0.06098108 -0.020511659 -0.0005454003

fc_last.weight f4 [1, 64]
00000000: 1908 cb3c 1ac3 273d 7f0c 853d 4ff9 813d
00000010: 93e0 073d 7109 3b3e 7e16 0bbe 5998 9ebb
00000020: 244b d93d addf 313c 33c7 ad3d bd0f dd3d
00000030: 572e 7fbd 933d dc3c 4427 d13d afa1 06be
00000040: 96c2 853d 3dc2 d5bd 389f 68bd b977 35bd
00000050: fe5e 67bd 7a9c cdbd 2159 ef3d 37b5 efbd
00000060: f933 083c 3ab7 3c3c cd52 00bd c003 25bc
00000070: 471f f6bc 1e68 0abe f76e d93d 70cd 0cbd
00000080: 326c a93d b85d 53bd c333 5bbd 4359 773c
00000090: 6945 c33d ec7f 4e3d fc4e 63bd b21a 01be
000000a0: fed8 c7bd 4b11 183e 2d8e b53e 7134 023e
000000b0: dd56 a33d 3de7 e13d 943c 93bd c9fd 9fbd
000000c0: 2e0a d8bc 483e 10bd 1d8f 73bd a950 243c
000000d0: 95be db3d 3ff8 eebd ac9b 52bd 77c1 c6bd
000000e0: 2b35 18bd 8936 5cba ee83 f5bd 2015 2d3d
000000f0: b5e3 82bd 3413 84bd a3cb cd3c 9dd3 6e3d
0.024784135 0.040957548 0.06496524 0.0634638 0.033173155 0.1826532 -0.13582799 -0.0048399386
0.10610035 0.010856551 0.0848526 0.107940175 -0.062300052 0.02688483 0.102125674 -0.13147615
0.06531255 -0.10437439 -0.056792468 -0.04430363 -0.056487076 -0.10039611 0.11686922 -0.11704486
0.0083131725 0.011518294 -0.031328965 -0.010071695 -0.030044211 -0.1351628 0.10616868 -0.034375608
0.0827259 -0.05160305 -0.05351616 0.015096965 0.09534723 0.050414965 -0.055495247 -0.1260784
-0.09758185 0.14850347 0.35460034 0.12715317 0.07975552 0.11030433 -0.07189289 -0.078120776
-0.026372042 -0.035215646 -0.059462655 0.0100289965 0.1072971 -0.11668443 -0.05141799 -0.09704869
-0.03716008 -0.00084004604 -0.11988054 0.042256474 -0.06391088 -0.06448975 0.025121516 0.05830728
